digits_recognition.pt (torch, 308631 bytes, 6 tensors)

input_layer.weight f4 [32, 2352]
0	0x3baa7803	0.005202295
1	0x3c65efa4	0.014034186
2	0x3babaa22	0.0052387873
3	0x3ca3b7a5	0.01998503
4	0xbb709230	-0.0036708228
5	0x3cf57389	0.029962318
6	0xbb3b72eb	-0.0028602432
7	0xbbb05ec5	-0.005382391
8	0xbb674dbb	-0.0035294134
9	0x3c9c6fda	0.019096304
10	0x3b1e9928	0.0024200175
11	0x3c8c93e9	0.017160373
12	0xbc19c615	-0.009385605
13	0xbbb0830e	-0.0053867167
14	0xbb20ffa3	-0.0024566434
15	0x3a3a7d4c	0.00071140076
16	0xbc2601ed	-0.010132295
17	0x3c9b2f24	0.018943377
18	0x39f9c754	0.00047641492
19	0x3c782d0d	0.01514746
20	0x3cc02b2f	0.023458092
21	0x3c84c634	0.016207792
22	0x3c966703	0.018359667
23	0x3d0fd547	0.035115507
24	0x3b7078e7	0.0036693157
25	0x3c959834	0.018261053
26	0x3b886262	0.004162119
27	0x3cd2bffe	0.025726315
28	0x3ced1624	0.028941222
29	0x3c36559d	0.01112881
30	0x3d495864	0.04915656
31	0x3d08abdb	0.03336702
32	0x3cc18b12	0.023625884
33	0x3c931378	0.01795362
34	0x3cc09f3a	0.023513425
35	0xbbac06a4	-0.005249815
36	0xbd07c4be	-0.033146612
37	0xbc9b5f16	-0.018966239
38	0xbcc1d801	-0.023662569
39	0xbc2f784f	-0.010709836
40	0xbce85ecf	-0.02836552
41	0xbd18c060	-0.037292838
42	0xbd1ed051	-0.038772885
43	0xbc989708	-0.018626705
44	0xbd37c165	-0.04486217
45	0xbce888e2	-0.028385583
46	0xbc8e6803	-0.017383581
47	0xbbe2d656	-0.0069225235
48	0x3c32c741	0.010911764
49	0x3c7f4788	0.015581019
50	0x3c7e1d24	0.015509877
51	0x3c71e94b	0.014765094
52	0x3c3006f6	0.010743847
53	0x3c338cc8	0.010958858
54	0x3b630ae9	0.0034643954
55	0xbc0ffa02	-0.008787634
56	0xbb6c1e96	-0.0036028973
57	0x3d89dd48	0.06731659
58	0x3d66ae13	0.056318354
59	0x3c4eddd0	0.012626126
60	0x3c1fff57	0.009765468
61	0x3c0b472b	0.0085008545
62	0xbd2d0466	-0.042240523
63	0xbd408f8c	-0.047011897
64	0xbd353e11	-0.044248644
65	0xbc76afc7	-0.015056557
66	0xbc81e3a5	-0.01585562
67	0xbbff83bb	-0.007797686
68	0xbcbe0ba4	-0.02319891
69	0x3c6f4288	0.014603265
70	0x3c0303c4	0.007996503
71	0xbb99d830	-0.004694961
72	0xbd090ef4	-0.033461526
73	0xbd03238c	-0.032016322
74	0x3b6b402c	0.0035896404
75	0xbb285520	-0.0025685504
76	0x3b1fb291	0.0024367908
77	0xbcbd4ff6	-0.023109417
78	0xbc0f2ff8	-0.008739464
79	0x3c86655e	0.016405758
80	0x3c67faee	0.014158947
81	0xbb726e39	-0.0036991967
82	0xbb27aa38	-0.0025583636
83	0x3ba1a99a	0.004933548
84	0xbaa2e070	-0.0012426507
85	0x3d2024e5	0.039097685
86	0x3d217155	0.039414722
87	0x3cd07dc2	0.025450591
88	0xbc0a0123	-0.008423123
89	0xbc83accf	-0.016073612
90	0xbd306806	-0.043067954
91	0xbc68e027	-0.014213598
92	0xbbe56768	-0.0070008524
93	0x3c28decc	0.010307025
94	0xbc0c02cf	-0.0085455915
95	0xbb887015	-0.004163752
96	0x3c190852	0.009340363
97	0x3c927db2	0.017882202
98	0x3c8e99d6	0.017407339
99	0xbc38a53a	-0.011269862
100	0x3c89256f	0.016741483
101	0xbca0350f	-0.01955655
102	0x3bdbd85f	0.006709143
103	0xba23cdd5	-0.0006248628
104	0xb9933763	-0.0002807929
105	0x3b7971b2	0.0038062152
106	0x3ba641b2	0.0050737495
107	0x3c8b2af3	0.016988253
108	0x3c21a02a	0.009864846
109	0x3baa9ad8	0.005206447
110	0x3bd4c5d5	0.00649331
111	0xbc023553	-0.007947284
112	0x3c9c33f5	0.019067744
113	0x3cc8cb70	0.024511069
114	0x3cc0bd1d	0.023527676
115	0xbcae4048	-0.021270886
116	0xbd43c9a3	-0.047799718
117	0xbc15dee4	-0.00914738
118	0xbaaac10e	-0.0013027505
119	0x3be28c71	0.0069137146
120	0xbb40fec3	-0.0029448725
121	0xba566367	-0.0008178264
122	0x3ba2e7db	0.004971487
123	0xbce63569	-0.02810164
124	0x3be6fecf	0.0070494185
125	0xbc069c1a	-0.008215928
126	0x3c6d2e69	0.014476397
127	0x3b039b69	0.0020081645
128	0x3c1cf817	0.009580634
129	0x3c987c2b	0.018613895
130	0xbbcb254e	-0.0061995154
131	0x3bfa25b2	0.007633888
132	0x3b7cd580	0.0038579404
133	0xbc20aaf4	-0.009806383
134	0x3c0907d0	0.008363679
135	0x3b498de3	0.0030754737
136	0x3c7fc85e	0.015611736
137	0x3bb1bac1	0.005423874
138	0x3b4bc53f	0.003109291
139	0xbc6bad5f	-0.014384597
140	0x3c0d34dc	0.00861856
141	0xbb13179f	-0.00224445
142	0xbbbfc831	-0.005852722
143	0xbb7979ce	-0.0038066986
144	0xba23dd46	-0.0006250929
145	0x3bce4316	0.0062946184
146	0xbabd3e3a	-0.0014438101
147	0x3c3edc61	0.011649222
148	0xbb4eb290	-0.0031539537
149	0xbcb9831b	-0.022645524
150	0xbd0242cc	-0.031801984
151	0xbcaac977	-0.020848019
152	0xbb9a5f1e	-0.004711046
153	0x3c9ec839	0.019382583
154	0x3ceafaa8	0.028683975
155	0x3ceef249	0.029168265
156	0xbb75f3db	-0.0037529382
157	0x3c49bfd7	0.012313805
158	0xbc21d94c	-0.009878468
159	0xb9da6dbc	-0.0004166196
160	0xbc123c3f	-0.008925497
161	0x3bb7c11a	0.0056077363
162	0xbcaeb620	-0.021327078
163	0x3c6b1dcb	0.014350365
164	0x3c27563a	0.010213429
165	0xba375c8d	-0.0006994687
166	0xbb12f83d	-0.0022425794
167	0x3c31893a	0.01083594
168	0x3cc70a4b	0.0242969
169	0x3c3b4781	0.011430622
170	0xbd2d2b3e	-0.042277567
171	0xbd147c1d	-0.036251176
172	0x3cb79064	0.022407718
173	0x3ce8c91a	0.028416205
174	0x3b4ec74a	0.003155189
175	0x3c10f18f	0.008846655
176	0xbc003336	-0.00782471
177	0x3b9e2859	0.004826587
178	0x3bf0ca79	0.0073483554
179	0xbc1aa6e2	-0.009439202
180	0xbba13dd0	-0.0049206987
181	0x3c2f9f26	0.010719096
182	0x3cf95d96	0.030440133
183	0x3ac9d892	0.0015399626
184	0x3a640e24	0.0008699617
185	0x3c38881b	0.011262919
186	0xbb7210d1	-0.0036936293
187	0x3bf352d8	0.007425647
188	0x3c73fbeb	0.014891605
189	0xbcd339cb	-0.025784394
190	0xbc827060	-0.015922725
191	0xbcbc3736	-0.022975545
192	0xbc493943	-0.012281719
193	0xbbc06420	-0.005871311
194	0xbd1fc351	-0.039004628
195	0xbc4cb840	-0.0124951005
196	0x3c754b5e	0.014971582
197	0xbc89cf07	-0.016822351
198	0xbd15b86d	-0.036552835
199	0xbcd3ebb8	-0.025869235
200	0x3cc0137f	0.023446796
201	0x3d29f0ce	0.041489415
202	0x3cc2462a	0.023715097
203	0xbbab455d	-0.0052267746
204	0xbc02cd23	-0.007983479
205	0x3c36b810	0.011152282
206	0xbac77650	-0.0015217755
207	0xbc021a6e	-0.007940872
208	0xb911a7e4	-0.00013890822
209	0x3c853a0b	0.016263029
210	0x3c29d1ec	0.010364991
211	0x3cb39672	0.021922324
212	0x3d29d2be	0.041460745
213	0x3bd1416a	0.006385972
214	0x3bdf9361	0.006822989
215	0xbc060aff	-0.008181333
216	0x3c5d65f0	0.013513073
217	0xbc3e8133	-0.011627483
218	0x3a94efef	0.001136301
219	0xbc1147a7	-0.008867181
220	0xbd302513	-0.043004107
221	0xbce35695	-0.027751246
222	0x3c671508	0.014104135
223	0xbab96d2c	-0.0014146916
224	0x3c99e1d9	0.01878445
225	0xbccb1701	-0.024791243
226	0xbd842fc4	-0.06454423
227	0xbd7d71ee	-0.06187623
228	0x3d01afde	0.03166186
229	0x3d0f156c	0.03493254
230	0x38cb65d0	9.6987584e-05
231	0xbc081832	-0.00830655
232	0xbc2af720	-0.010434896
233	0x3c3aec3d	0.011408863
234	0x3bf646e2	0.007515774
235	0xbc78f799	-0.015195751
236	0x3c35d7c5	0.011098807
237	0x3b05db42	0.0020424877
238	0x3bb41636	0.005495812
239	0x3d46e13a	0.048554637
240	0x3d3d2b25	0.046183724
241	0x3c43f7a0	0.011960894
242	0xbc540f17	-0.012943051
243	0xbbf1970f	-0.007372744
244	0x3bca730d	0.006178266
245	0x3b83b7f3	0.004019731
246	0xbcc91b7b	-0.024549237
247	0xbd00842a	-0.03137604
248	0xbc4a512f	-0.012348457
249	0xbaf9c4d0	-0.0019055847
250	0x3d1a6dc1	0.037702326
251	0x3c67c413	0.014145869
252	0x3ceb2311	0.028703244
253	0xbcb4289e	-0.021992024
254	0xbd4c32e1	-0.04985321
255	0xbd429cdd	-0.047512878

input_layer.bias f4 [32]
0	0x3cbeb85e	0.023281273
1	0x3bb5c8f0	0.0055476353
2	0x3c7f2734	0.015573312
3	0x3b0aaf91	0.0021161775
4	0xbc58c06d	-0.013229472
5	0x3c998c43	0.01874364
6	0x3cb62b63	0.022237485
7	0x3bbf4314	0.0058368538
8	0xbccaa40d	-0.024736429
9	0xbc113ad0	-0.00886412
10	0x3cec1634	0.028819181
11	0xbbc657ff	-0.0060529704
12	0xbb9cfcbc	-0.0047908705
13	0x3d0530ff	0.03251743
14	0xbc066c81	-0.00820458
15	0x3b1d7716	0.002402728
16	0xbca3dd0c	-0.020002864
17	0x3c997b73	0.018735623
18	0xbcc363f5	-0.023851374
19	0xbb4df166	-0.0031424402
20	0xbd10b3c7	-0.0353277
21	0xbcba4ca4	-0.022741623
22	0xbc275ac9	-0.010214516
23	0xbbbe5109	-0.005808
24	0xbc5718e6	-0.013128495
25	0x3be92159	0.007114571
26	0x3b83676f	0.004010133
27	0xbc9b0e1c	-0.018927626
28	0xbc9f50d3	-0.01944772
29	0x3cc20954	0.023686089
30	0xbc59c62b	-0.013291876
31	0xbcc74561	-0.024325075

hidden_layer.weight f4 [32, 32]
0	0xbc327115	-0.010891219
1	0xbe3b84fb	-0.18312447
2	0x3dc3526c	0.09537205
3	0x3d5b8861	0.053596858
4	0x3e7c6452	0.24647644
5	0x3e035676	0.12825951
6	0x3d66ddfd	0.05636405
7	0xbc11f714	-0.008909006
8	0xbd7a79ab	-0.061151188
9	0xbd85c856	-0.06532352
10	0xbc98a713	-0.018634355
11	0x3d927d79	0.07152838
12	0x3c3041a8	0.010757841
13	0xbe165be6	-0.14683494
14	0xbc59613d	-0.013267812
15	0xbd82ef4f	-0.06393301
16	0xbbf5e22b	-0.007503768
17	0x3e122e17	0.14275394
18	0x3d2a6e54	0.041609123
19	0xbe0795f5	-0.13240798
20	0xbe054a0b	-0.13016526
21	0x3e6bac70	0.23014998
22	0x3e43c8c6	0.19119558
23	0x3e07508c	0.1321432
24	0x3dc000f7	0.09375184
25	0x3d54d092	0.05195672
26	0x3daf533a	0.08560796
27	0xbddf89a7	-0.10914927
28	0xbda999a5	-0.082812585
29	0x3e13104a	0.14361683
30	0x3cf548dd	0.02994197
31	0xbe25fdd3	-0.16210108
32	0xbcf11c69	-0.029432492
33	0xbe1773f0	-0.1479032
34	0x3df765c1	0.12079955
35	0x3c2dee1f	0.0106158545
36	0xbe1f8f21	-0.15581943
37	0xbdc5325a	-0.096287444
38	0xbd7c27f6	-0.061561547
39	0x3d8ad647	0.067791514
40	0xbe381dac	-0.17980069
41	0xbd0531a2	-0.032518037
42	0x3df688ed	0.12037835
43	0x3d86eeee	0.06588541
44	0xbd4d34bf	-0.05009913
45	0xbd8605f9	-0.06544108
46	0x3e73214f	0.23743175
47	0xbccc93e1	-0.024972858
48	0x3d4afc5f	0.049557086
49	0x3e1ab4b7	0.15108
50	0x3dc27b34	0.094961554
51	0x3db4096c	0.087908596
52	0x3d9bdf04	0.07610896
53	0x3dfdf58e	0.124003515
54	0xbe452a06	-0.19254312
55	0xbb6837fc	-0.003543376
56	0x3d99567d	0.074871995
57	0x3d1529a0	0.03641665
58	0xbe01cbcb	-0.12675397
59	0x3e1a34fd	0.15059276
60	0x3dd611a9	0.10452587
61	0xbd6e7296	-0.058214746
62	0x3d12a035	0.035797317
63	0xbc060e89	-0.008182176
64	0x3d135ab2	0.035975166
65	0xbd4ba57a	-0.049718358
66	0xbde9ebf8	-0.114219606
67	0xbe5799ac	-0.21054715
68	0xbe06226c	-0.13099068
69	0x3e2e523d	0.17023559
70	0x3dccc907	0.099992804
71	0xbe2913b6	-0.16511425
72	0x3df1786f	0.11790549
73	0xbe3be2b2	-0.18348196
74	0x3dc9633f	0.09833383
75	0x3dc97774	0.09837237
76	0x3e41d92b	0.189305
77	0x3e390bd2	0.18070915
78	0xbd79e9d2	-0.061014004
79	0xbe0e4f71	-0.13897492
80	0xbd9e45c0	-0.077281475
81	0xbd52e223	-0.051485192
82	0x3e075f32	0.13219908
83	0x3e26e800	0.16299438
84	0xbe2e2f5b	-0.17010252
85	0x3e40e4d0	0.18837285
86	0x3e20aa90	0.15690064
87	0xbdd20466	-0.10254745
88	0xbd5869ed	-0.052835394
89	0xbe346359	-0.17616023
90	0x3e6996b7	0.228114
91	0x3e3afdb4	0.18260843
92	0xbe389a77	-0.18027674
93	0x3c203d76	0.009780278
94	0x3da3923f	0.079868786
95	0xbd83d28a	-0.064366415
96	0xbdba5aa2	-0.09099318
97	0xbb2cedd4	-0.0026386874
98	0x3d1283b6	0.03577014
99	0xbd892022	-0.06695582
100	0x3db672f5	0.08908645
101	0x3dfc7435	0.12326852
102	0x3deea484	0.116524726
103	0x3dd82a31	0.10554922
104	0xbceac73c	-0.028659455
105	0xbdedd560	-0.11612964
106	0xbd73317e	-0.05937337
107	0xbd8371f4	-0.06418219
108	0x3e066986	0.13126191
109	0x3e391d5e	0.18077609
110	0x3e352bd5	0.17692502
111	0x3e497ed4	0.19677287
112	0x3e54c559	0.20778407
113	0xbe0f4f3d	-0.13995071
114	0x3d200979	0.039071534
115	0xbe30fc45	-0.17283733
116	0xbd03a9a9	-0.032144222
117	0xbd9d9edf	-0.07696318
118	0x3d79434d	0.0608552
119	0x3c6fc046	0.014633244
120	0x3e089830	0.13339305
121	0x3e3b1840	0.1827097
122	0xbe20635e	-0.15662906
123	0xbd67698b	-0.056497138
124	0xbdddcef2	-0.10830487
125	0x3b5e2b65	0.0033900377
126	0xba37c7fe	-0.0007010697
127	0x3e18357b	0.14864151
128	0xbd769e2e	-0.060209446
129	0x3dc7760b	0.09739312
130	0x3ded8813	0.1159822
131	0x3e21e0be	0.15808389
132	0x3c7a79a9	0.015287795
133	0xbe133c4c	-0.1437847
134	0x3dbd3998	0.09239501
135	0xbbb6c28a	-0.00557739
136	0xbe58fae8	-0.21189463
137	0xbe6f56fd	-0.23373027
138	0x3e420308	0.18946469
139	0xbe22f74d	-0.1591465
140	0x3d2e050c	0.04248528
141	0xbd3b50a5	-0.045731205
142	0x3d603fd5	0.054748375
143	0xbe2a02ad	-0.16602583
144	0x3cfe7dae	0.031065788
145	0x3dd7fa4a	0.10545786
146	0xbd0f4884	-0.034981266
147	0x3e7138ac	0.23556775
148	0xbdf8db94	-0.12151256
149	0xbb8c6c07	-0.004285339
150	0x3cf73d6e	0.03018066
151	0x3e0c5a80	0.13706398
152	0xbe1d1d30	-0.15343165
153	0xbe13fb88	-0.1445142
154	0xbd69bcab	-0.057064693
155	0xbdc70822	-0.09718348
156	0x3dbe87c6	0.093032405
157	0x3e66c5e1	0.22536422
158	0x3e3033e4	0.17207295
159	0x3dc5e532	0.09662856
160	0x3e22a384	0.15882689
161	0x3db6bd15	0.08922783
162	0x3d5d6cea	0.054058947
163	0x3dd7a992	0.1053039
164	0x3e08fd3a	0.13377848
165	0x3e22d178	0.15900218
166	0x3d17e638	0.037084788
167	0x3dbb9eb4	0.091611296
168	0x3db3fd85	0.087885894
169	0xbe2f4f22	-0.1712003
170	0x3d6a6188	0.05722192
171	0xbd909b12	-0.07060827
172	0x3d5d823a	0.05407927
173	0x3e0d61f3	0.13806896
174	0xbdfaaf1b	-0.1224043
175	0xbe14d334	-0.14533693
176	0xbe3d1c14	-0.18467742
177	0xbd90a9da	-0.070636466
178	0x3defa4c7	0.11701351
179	0x3e5976a3	0.21236663
180	0xbcd7d5fb	-0.026347151
181	0xbd139613	-0.036031794
182	0xbcb0cf28	-0.021583155
183	0xbd48e6d9	-0.04904828
184	0x3b8c2a95	0.004277537
185	0x3d6fc87f	0.058540817
186	0x3c92e01c	0.01792913
187	0xbdd1e6ce	-0.102491006
188	0x3dc07104	0.09396556
189	0x3e264c8e	0.16240141
190	0x3e277e58	0.1635679
191	0xbd431747	-0.04762962
192	0xbd8773c5	-0.06613878
193	0x3c923ac0	0.01785028
194	0xbb77c144	-0.0037804404
195	0xbe0ccbef	-0.1374967
196	0xbe117c6a	-0.14207616
197	0x3d0ec0d2	0.034851857
198	0x3e6f1c9b	0.23350756
199	0xbe380f53	-0.17974596
200	0xbd1e89a2	-0.038705476
201	0x3dda6a34	0.10664788
202	0x3dd70c5a	0.10500403
203	0x3db1a4a0	0.08673978
204	0x3cbe13f6	0.023202877
205	0x3e2dc6d8	0.16970384
206	0x3d14be7d	0.036314476
207	0x3d3c7eea	0.046019472
208	0x3d623bcc	0.055232808
209	0xbdabac13	-0.0838243
210	0xbdf40e80	-0.11916828
211	0x3c920e3f	0.017829059
212	0x3db3b4c0	0.0877471
213	0xbe0847e5	-0.13308676
214	0xbde1c265	-0.11023406
215	0x3d891344	0.06693128
216	0xbe0162cf	-0.12635349
217	0xbe2002ca	-0.15626064
218	0x3da47003	0.08029177
219	0xbddc1f65	-0.107481755
220	0x3d84869f	0.064709894
221	0xbe808b3d	-0.2510623
222	0xbe7a930a	-0.24470153
223	0xbe1e991f	-0.15488099
224	0x3d74cb82	0.059764393
225	0x3d97d8df	0.07414412
226	0x3e421815	0.18954499
227	0xbca46400	-0.020067215
228	0x3cf10301	0.029420378
229	0xbe3fc2a3	-0.18726592
230	0xbdbf6f25	-0.09347371
231	0x3da530d5	0.080659546
232	0xbd43ec51	-0.04783279
233	0xbc731f5b	-0.014839019
234	0x3cd54b8b	0.026036998
235	0x3cc6dac3	0.024274236
236	0xbd068468	-0.032841116
237	0x3b9f774e	0.004866517
238	0x3d258916	0.04041394
239	0xbe1617cd	-0.14657517
240	0xbe018cd7	-0.12651382
241	0xbce22bf4	-0.02760885
242	0x3d5738fe	0.052544586
243	0xbcd85ae8	-0.026410535
244	0xbd4b949d	-0.049702276
245	0xbddad6d2	-0.10685505
246	0xbe000cf3	-0.1250494
247	0x3c23351a	0.009961391
248	0xbc228cee	-0.009921296
249	0xbdf6c845	-0.12049917
250	0x3d9d0d21	0.0766852
251	0x3e2e71ee	0.17035648
252	0x3d2162e9	0.03940097
253	0xbd8a1a72	-0.06743325
254	0xbd9ed12f	-0.07754742
255	0xbcb85f85	-0.022506485

hidden_layer.bias f4 [32]
0	0x3dae4c4d	0.08510647
1	0x3debf9b7	0.11522239
2	0x3ceab3c4	0.028650172
3	0xbe326b53	-0.17423753
4	0x3e3c2304	0.18372732
5	0xbddd9fd6	-0.10821502
6	0x3d809bcd	0.06279717
7	0x3df9fcd2	0.12206425
8	0xbce3b9d0	-0.027798563
9	0x3e127103	0.14300923
10	0xbda9c502	-0.082895294
11	0xbd4cd82c	-0.050010845
12	0x3dd5e50c	0.10444078
13	0x3d3162f2	0.043307252
14	0xbdd74d49	-0.10512788
15	0xbd2e745f	-0.04259145
16	0xbd556789	-0.052100692
17	0x3e088ae3	0.13334231
18	0xbe2f4410	-0.17115808
19	0x3de8fde9	0.113765545
20	0xbd8eeb25	-0.06978444
21	0x3dbd845a	0.0925376
22	0xbca504d0	-0.020143896
23	0x3e21079a	0.15725556
24	0xbe1313e6	-0.1436306
25	0xbdd5ddef	-0.10442721
26	0x3dca2f34	0.098722845
27	0xbe1246f1	-0.14284874
28	0xbd89864f	-0.067150705
29	0x3d908065	0.07055739
30	0x3db1371c	0.086530894
31	0x3d002e43	0.03129412

output_layer.weight f4 [10, 32]
0	0x3d6213c6	0.05519464
1	0xbd6a1346	-0.057147287
2	0x3e37d0aa	0.17950693
3	0xbe3b1f04	-0.1827355
4	0xbd08c447	-0.03339031
5	0xbcf94825	-0.030429909
6	0xbd47b3db	-0.048755508
7	0x3c7db227	0.015484369
8	0xbe15a63d	-0.14614196
9	0xbe147d94	-0.14501029
10	0xbd5bf1b2	-0.053697295
11	0xbe7af662	-0.2450805
12	0xbe2f7df6	-0.17137894
13	0xbe5eaf01	-0.21746446
14	0x3e09a01f	0.13439988
15	0x3d843bdc	0.0645673
16	0x3d4192f3	0.047259282
17	0x3e15da1c	0.14633983
18	0xbe824475	-0.25442854
19	0xbc3c44e1	-0.011491031
20	0x3ceeee3f	0.029166339
21	0x3c9409ed	0.01807114
22	0xbd994361	-0.07483555
23	0x3e3d3518	0.18477285
24	0x3dac6fd0	0.08419764
25	0xbdd91d0c	-0.106012434
26	0x3cf7ec84	0.030264147
27	0x3dcf9c80	0.10137272
28	0x3e2fdd4b	0.1717426
29	0x3e01c593	0.12673025
30	0xbe3fc596	-0.18727717
31	0xbe04112f	-0.1289718
32	0xbd9f2f5a	-0.077727035
33	0x3d67b365	0.05656757
34	0x3d49ba2f	0.049249824
35	0xbe3a8b4d	-0.18217202
36	0xbe048ff4	-0.12945539
37	0xbe44639d	-0.19178624
38	0x3d0340b9	0.032044146
39	0x3e679f86	0.22619447
40	0xbc29f3fc	-0.010373112
41	0x3da136fc	0.078718156
42	0xbdf632c8	-0.120214045
43	0xbdc787ae	-0.09742676
44	0x3c88f1a7	0.016716791
45	0xbe3c3f97	-0.18383633
46	0x3dad9c08	0.08477026
47	0x3dd63ea5	0.10461167
48	0xbdef2496	-0.116769
49	0x3e143f17	0.14477192
50	0xbe218f74	-0.1577738
51	0x3cbcf4b3	0.0230659
52	0xbda6fbd4	-0.08153501
53	0x3e1cef13	0.15325575
54	0x3e2481b6	0.16065106
55	0xbd300a24	-0.04297842
56	0x3e0c13a3	0.13679366
57	0x3e3a3994	0.18186027
58	0xbdafd6fa	-0.085859254
59	0x3e5975b7	0.21236311
60	0xbc68e095	-0.014213701
61	0xbdf3781f	-0.11888146
62	0x3db3fe31	0.087887175
63	0x3d16c757	0.0368112
64	0xbe73cee1	-0.23809387
65	0xbe38f33c	-0.18061537
66	0x3e60ca7a	0.21952239
67	0xbddaad2f	-0.106775634
68	0x3ca9ec83	0.02074266
69	0x3e1224a3	0.14271788
70	0xbd51da07	-0.051233318
71	0x3db7eea0	0.08981061
72	0x3e46b02e	0.19403145
73	0x3db8e182	0.09027387
74	0xbdc76a5f	-0.097370856
75	0xbd6b0696	-0.057379328
76	0xbdd11ee4	-0.1021097
77	0x3e641f8d	0.2227766
78	0xbe2589ab	-0.16165797
79	0xbc8d88e4	-0.017277189
80	0xbd421cea	-0.047390856
81	0xbd67e8fc	-0.056618676
82	0x3d5220a7	0.05130067
83	0xbe58f5ed	-0.21187563
84	0xbe120fd1	-0.14263846
85	0x3e2c3054	0.1681531
86	0xbe3dab4d	-0.18522377
87	0xbb9daaff	-0.004811644
88	0xbcad5e67	-0.021163179
89	0x3ce15678	0.027507052
90	0xbdc5dbfe	-0.09661101
91	0xbbcabefd	-0.0061873184
92	0xbde6b3f2	-0.112647906
93	0x3ca0b10c	0.019615673
94	0x3d9cdf1c	0.07659742
95	0x3d3a318b	0.045457404
96	0xbce182c2	-0.02752817
97	0x3d81ed4d	0.0634409
98	0xbe39a129	-0.18127884
99	0x3de4ca20	0.11171365
100	0xbe66901b	-0.2251591
101	0xbd668449	-0.0562785
102	0xbe331048	-0.1748668
103	0xbd79cf2e	-0.060988598
104	0xbe1364f4	-0.1439398
105	0x3d2ca914	0.042153433
106	0xbdad0504	-0.08448222
107	0xbe17ca87	-0.14823352
108	0x3cda6071	0.026657315
109	0x3b93ac70	0.00450664
110	0x3d7f2fc4	0.062301412
111	0xbd811b1b	-0.06303998
112	0x3e3be7b7	0.18350111
113	0xbbabe57f	-0.005245864
114	0x3e15a9db	0.14615576
115	0xbd2aebf5	-0.041728932
116	0x3de3a6a1	0.11115766
117	0xbe794ae4	-0.24344975
118	0xbe24e04f	-0.16101192
119	0xbd76f762	-0.060294516
120	0x3e1b5011	0.15167262
121	0xbd089c5a	-0.033352233
122	0x3df49f9a	0.11944504
123	0x3d9879dc	0.07445118
124	0xbd74c5fc	-0.059759125
125	0xbe4e6ba9	-0.20158257
126	0xbe4a67dc	-0.19766182
127	0x3de683a0	0.11255574
128	0xbe21b2fa	-0.1579093
129	0x3dae771c	0.08518812
130	0xbdae0cff	-0.084985726
131	0xbe3101ca	-0.17285839
132	0x3da242f2	0.07922925
133	0x3e0578fb	0.13034432
134	0xbd3bac9e	-0.045818917
135	0x3de0cdc5	0.109767474
136	0x3e4f83aa	0.2026507
137	0xbe68e925	-0.22745188
138	0x3d6b0d50	0.057385743
139	0xbda69db0	-0.08135545
140	0x3df0efd3	0.11764493
141	0x3deac1fd	0.114627816
142	0xbe26867e	-0.16262242
143	0x3d2482d5	0.040163834
144	0xbe75bbe6	-0.23997459
145	0xbc81953d	-0.015818233
146	0x3df07728	0.11741477
147	0x3d9dd628	0.07706863
148	0x3e21ff1e	0.15819976
149	0xbdd95f5a	-0.1061389
150	0x3d506346	0.050875925
151	0x3db8ed8d	0.09029684
152	0x3d80e5a3	0.062938
153	0x3cc7ec26	0.024404597
154	0x3d1dd2f2	0.03853125
155	0xbe2d435f	-0.16920231
156	0xbcbfca58	-0.023411915
157	0xbdeb4098	-0.1148693
158	0x3dd32543	0.103098415
159	0xbd3139af	-0.043267902
160	0xbe22f157	-0.15912376
161	0xbd628d7b	-0.055310708
162	0xbe348704	-0.1762963
163	0xbc2d9665	-0.010594939
164	0x3d2dcdb7	0.042432513
165	0x3d4057c3	0.046958696
166	0xbd81ce57	-0.06338184
167	0xbd249caf	-0.040188488
168	0x3df09a18	0.11748141
169	0x3df8c705	0.12147335
170	0x3c1fcca3	0.009753379
171	0xbdeeff18	-0.11669749
172	0xbe5a6fd0	-0.21331716
173	0xbbc0d841	-0.0058851545
174	0x3e2eea7a	0.17081633
175	0x3d3fde6d	0.04684298
176	0x3e1228e4	0.14273411
177	0xbe5630a7	-0.20916997
178	0xbb8d46b9	-0.0043114093
179	0x3e4b36bf	0.19845103
180	0x3d224c31	0.039623443
181	0x3d11c0ae	0.035584144
182	0x3e04e35c	0.12977356
183	0x3ccc487e	0.02493691
184	0xbd26cbe5	-0.040721793
185	0xbdb12cc6	-0.08651118
186	0x3e0154bc	0.1262998
187	0x3d5bc403	0.05365373
188	0x3dbe56f6	0.0929393
189	0xbcdc16a1	-0.026866259
190	0x3cca8ea6	0.024726223
191	0x3cd8d3d6	0.026468199
192	0xbe6b87e2	-0.23001054
193	0x3deeaba5	0.11653832
194	0xbd457dc3	-0.04821564
195	0x3e08ec8e	0.13371488
196	0xbe7111ed	-0.23541994
197	0xbe32cd76	-0.1746119
198	0xbe5609fb	-0.20902245
199	0x3d4a8579	0.049443696
200	0x3d34b4cd	0.044117738
201	0xbcf49208	-0.02985479
202	0x3d84c548	0.06482941
203	0xbdc8a3f9	-0.097969
204	0xbe4f5b36	-0.20249638
205	0x3d303f5f	0.043029185
206	0x3e392947	0.18082152
207	0xbe143fa1	-0.14477398
208	0xbe0583fe	-0.13038632
209	0xbe046205	-0.12928016
210	0x3e3fc0dc	0.18725914
211	0x3e491cae	0.19639847
212	0x3d3b0f8b	0.04566912
213	0xbd6ca091	-0.057770316
214	0xbdbcc575	-0.092173494
215	0xbd8606f5	-0.06544296
216	0x3e089033	0.13336258
217	0xbe332f46	-0.17498502
218	0x3c9de60b	0.019274732
219	0x3d68c19a	0.056825258
220	0x3d9db07d	0.07699678
221	0x3d5843ab	0.05279891
222	0xbd423edf	-0.04742324
223	0x3dcf574a	0.10124071
224	0x3d0933ec	0.033496782
225	0xbdcc728f	-0.09982788
226	0x3dfa3c05	0.12218479
227	0x3d8ea0d6	0.06964271
228	0x3cd31228	0.025765494
229	0x3dd5e30e	0.10443698
230	0xbe14513c	-0.14484113
231	0xbe189029	-0.14898743
232	0xbe106da8	-0.1410433
233	0x3dbe5661	0.09293819
234	0xbe04a54f	-0.12953685
235	0x3d50acb1	0.05094594
236	0xbde91f1d	-0.113828875
237	0x3d9d8f16	0.07693307
238	0x3dba4076	0.09094326
239	0xbe16ced8	-0.14727342
240	0x3d51e64a	0.05124501
241	0x3c59f947	0.013304061
242	0xbda33833	-0.079697035
243	0xbcb4d808	-0.022075668
244	0x3e4651a3	0.1936708
245	0x3cb54bbe	0.022130843
246	0xbc8f42be	-0.01748788
247	0xbe0603c8	-0.1308738
248	0xbe19582e	-0.14975044
249	0xbe67bd98	-0.22630918
250	0x3dc16ccc	0.094445795
251	0x3e08866c	0.13332528
252	0xbdea891d	-0.114519335
253	0xbe8c7e33	-0.27440032
254	0x3e78962d	0.24276038
255	0xbdcf0d0d	-0.10109911

output_layer.bias f4 [10]
0	0x3c1326af	0.008981391
1	0xbdd593a3	-0.1042855
2	0x3c3fbb84	0.011702422
3	0x3e17b032	0.14813307
4	0xbe056fcc	-0.13030928
5	0x3df7cd23	0.120996736
6	0xbe2fb398	-0.17158353
7	0xbdaf19b6	-0.08549826
8	0x3da61715	0.08109871
9	0x3e032811	0.12808253
